trimesh/data/thetas.npy (npy, 416 bytes, 1 tensors)

array f8 [6, 6]
0	0x4006870ec3f0db3c	2.815946131503919
1	0x3fe58e734874547c	0.6736389556050564
2	0x400b98de42ee26e2	3.449642680065936
3	0xbfd23fb152fbccb2	-0.28513749221674367
4	0xbfa5f608f1311720	-0.04289272255168286
5	0x3ffae0c83eced2e8	1.679878468840963
6	0x4011eff58443ac65	4.484335009222467
7	0x4014e77eb8dc2986	5.226069343984255
8	0x4003093ba2b25327	2.379508277003328
9	0xc00a350455154013	-3.275887169562347
10	0x4004749894bfac8b	2.5569316502565633
11	0x401ee0e1eb8bd274	7.7196118167963625
12	0x3fff3e6da8234d2a	1.9527412956129617
13	0x4013310e4bc12de3	4.79790609709332
14	0x4009c2bef2f338f7	3.220090768859446
15	0xbfd1621c6ea67d79	-0.2716132240838856
16	0x3fb5a100ff988bee	0.08448797454961696
17	0x3fe1e75630062104	0.5594893396346667
18	0x4012a5fdccb2b5c6	4.662100981147381
19	0x4011dbe104e21a7b	4.464725567150363
20	0x401323c28db56e05	4.784921850393862
21	0xbffa6984ed96704c	-1.650761535717737
22	0xbff5878e06ba94b7	-1.3455944311947812
23	0x400d2301d2b083a0	3.6420933208577964
24	0x4013f49a065fc4b5	4.988868808360327
25	0x3fd0c74c070e1972	0.26216412247631304
26	0x400aeaa54b4a8135	3.3645730859863314
27	0x400396cfa0a045e0	2.4486382054244444
28	0x400b657d8586be98	3.4245558196779022
29	0x401b3ecd323d98ca	6.81132963658292
30	0x401790e7a922f692	5.891508715399725
31	0x3fc1dd4fd73b6dbd	0.1395664025247764
32	0x4011238af7c31651	4.284709807665039
33	0xbfed358ba8ffafef	-0.9127863217122448
34	0xbffc0d6acd6a2d4f	-1.7532756828321288
35	0x40148812d22db282	5.132884296454565
