trimesh/data/thetas2.npy (npy, 464 bytes, 1 tensors)

array f8 [7, 6]
000000 0d 03 70 aa 72 57 fa 3f b3 8b d8 1c c2 e7 ef 3f
       1.646349588176409 0.9970408023258329
000010 a6 46 c5 03 d8 f5 fb 3f 0e f9 eb 21 ba cc f6 3f
       1.7475204608239578 1.4249821972912886
000020 c0 9f 3f 8c 5f cc 06 c0 99 e7 f5 ac 57 bc 14 40
       -2.8497916180531035 5.183928205975371
000030 e6 d5 32 7e 70 cf 03 40 0c 37 fd 34 ca ab 09 40
       2.476288782049539 3.2088817729735464
000040 84 9e 9e 86 b9 36 e9 3f fe 24 e3 f1 13 6e e4 bf
       0.7879302624978242 -0.6384372448311806
000050 2a 55 0c cb 57 c2 f2 bf 39 98 18 61 1a b5 02 40
       -1.172447007328922 2.3384292207365687
000060 66 6e d2 ba 08 78 10 40 0f 62 e6 b3 ee 2c fb 3f
       4.1172208014428175 1.6984698321667826
000070 f2 dc e5 97 80 31 fc 3f 8e 16 d6 1e bb aa f6 bf
       1.762085526801283 -1.4166823582212689
000080 db 9e 78 16 a3 09 db 3f 41 a6 01 25 bf e5 15 40
       0.4224631995625551 5.474361971116708
000090 7a 9d b2 36 13 48 f3 3f 7a 38 11 fd e6 60 f9 3f
       1.2050964485768803 1.5861577878418118
0000a0 00 6f 27 ab 84 37 0b 40 6f 76 30 18 bd 3b cc 3f
       3.402108513966482 0.220573078929124
0000b0 3b 90 fd a1 d7 9f c2 bf b0 31 ca ba 19 4c df 3f
       -0.1455030003518248 0.48901980630105424
0000c0 38 f2 29 20 10 e9 15 40 98 fa 00 e0 53 d1 f4 3f
       5.4776005769349965 1.3011053800725332
0000d0 52 b5 f9 94 a2 29 d7 3f c2 25 fe ef 74 cc 10 c0
       0.36191620396023894 -4.199664831053669
0000e0 54 f0 04 57 60 0d 08 c0 0d 55 a3 0c 33 d3 20 40
       -3.0065314100629994 8.412498850763336
0000f0 04 32 eb f5 e5 69 0d 40 58 16 c5 00 5e 2b b7 3f
       3.6767081463242466 0.09050548094554622
000100 f7 05 15 4d 9c b7 0e 40 fe 88 bb cf 8b f5 fc bf
       3.8396535894432833 -1.8099477877190675
000110 62 ec bd 31 09 92 f7 3f 0c ce a9 fc 1e 1d 10 40
       1.473153299621821 4.028438518394534
000120 af f2 c0 37 7f 8b 05 40 9e 03 d9 22 4a 06 06 40
       2.6931137424238254 2.753071090934511
000130 a0 3f 2d 51 b9 71 e6 3f b5 cd 17 b6 21 1a 07 c0
       0.7013823113902511 -2.8877596117033257
000140 bc 82 84 07 68 68 07 40 ab 14 62 c5 bd d6 21 40
       2.925979670268445 8.919416588042017
